model.pth (torch, 4724 bytes, 6 tensors)

linear1.weight f4 [20, 2]
-0.5761518 -0.019017648 0.4420147 -0.78351533 -0.68375987 0.1327984 -0.37522763 0.5540316
0.6211312 -0.5661141 -0.5883451 -0.1127331 0.58589906 -0.00837784 0.0016205566 -0.4616267
-0.34928167 -0.227683 0.4293491 -0.73290557 0.69057494 -0.14943963 -0.07460791 0.5970961
0.9346373 0.014441635 -0.039134227 0.527262 -0.104302935 -0.34100515 -0.6440975 -0.37205708
0.41785133 0.73779225 0.88579637 -0.052738547 -0.02776457 -0.42849523 0.30367512 -0.5810314
00000000: af7e 13bf e6ca 9bbc c04f e23e 7694 48bf
00000010: e30a 2fbf 4efc 073e d61d c0be 04d5 0d3f
00000020: 7402 1f3f dbec 10bf c99d 16bf 9de0 e6bd
00000030: 7bfd 153f 3543 09bc db68 d43a 565a ecbe
00000040: 0cd5 b2be bb25 69be a5d3 db3e b39f 3bbf
00000050: 85c9 303f b406 19be 08cc 98bd 4adb 183f
00000060: 6444 6f3f 9c9c 6c3c 364b 20bd a4fa 063f
00000070: c79c d5bd 3a98 aebe 93e3 24bf 447e bebe
00000080: 9cf0 d53e f4df 3c3f 8dc3 623f 6004 58bd
00000090: 8672 e3bc ba63 dbbe 4e7b 9b3e 79be 14bf

linear1.bias f4 [20]
0.66403437 -0.6135191 0.39629582 -0.10347685 0.39586055 0.4612655 0.6590918 -0.19020125
-0.47045752 0.5203643 0.1523301 0.15030311 -0.4678753 0.67774725 0.27178422 0.038893007
-0.32340407 0.098678194 -0.50403035 0.17786455
00000000: 28fe 293f 960f 1dbf 49e7 ca3e aceb d3bd
00000010: 3cae ca3e fe2a ec3e 3dba 283f 1ec4 42be
00000020: cfdf f0be 9836 053f 6cfc 1b3e 0fe9 193e
00000030: 5a8d efbe d880 2d3f 4d27 8b3e 464e 1f3d
00000040: 3895 a5be cb17 ca3d 2208 01bf 2022 363e

linear2.weight f4 [20, 20]
-0.18454674 -0.049688637 -0.052025862 -0.05715032 -0.20009835 -0.21047106 -0.057635326 0.03656135
0.15659119 0.20761591 0.05678761 -0.19822559 -0.2222286 -0.089826636 -0.12229115 0.022696257
-0.07532655 -0.14220345 -0.18201327 0.05394147 0.19123042 -0.117625125 -0.18943633 0.19391465
-0.17121564 0.12025025 -0.023929846 0.1592219 -0.10287307 0.09825838 0.041057874 0.08430892
-0.266532 0.057556063 0.11714388 -0.18658537 -0.006054072 -0.009368178 -0.050588917 -0.015415464
0.06161688 -0.19469303 -0.06503146 -0.16447748 -0.08200379 -0.1311386 -0.10507712 0.16938226
0.16239764 0.14884783 0.1536231 -0.15822431 -0.20314848 -0.005513918 -0.17580757 0.19680159
0.14639632 0.042991772 0.060205977 -0.1087771 -0.0006292131 0.2540135 0.05443739 0.029555343
0.3433901 -0.098428175 0.046219867 0.18808408 -0.18446343 0.35170835 0.11708058 0.18411216
-0.046682138 -0.0720471 0.064727984 0.16326833 -0.31523904 -0.17941126 0.29165262 0.19269043
0.11381076 -0.043302618 -0.07348622 -0.025869114 0.16609696 -0.013070632 0.034405984 -0.14432332
-0.22081068 0.016916864 -0.00065602286 -0.2682778 0.25127754 0.050483942 -0.081687175 -0.11864863
-0.11366784 0.21423379 -0.10985217 0.055201836 -0.0062338933 0.25212064 -0.21525013 0.05102824
-0.1317884 0.20552859 0.09375239 0.15465124 0.052949548 0.29580215 0.28801334 -0.09584352
0.36325622 -0.07014994 -0.20125718 0.1058747 0.056067705 0.2409913 0.03236557 0.061603244
-0.13190046 0.0052488944 -0.06693946 0.067902096 0.19601482 0.20168664 0.06998888 -0.096099995
-0.038417835 0.11084446 0.1767091 -0.039798614 0.35612503 -0.048460916 0.12503482 -0.15306287
0.045240443 0.29525283 0.16754344 -0.010414959 -0.059962727 -0.09688605 0.028374853 0.04066701
-0.17432798 0.10443993 0.1584877 0.19573608 -0.0035571374 -0.20909257 -0.03962231 0.013461114
-0.065968804 0.20728947 -0.091845594 -0.014298336 -0.1678845 0.021270486 -0.08706545 -0.14079389
0.16482513 0.17904569 -0.17873953 -0.20614703 0.13408467 0.04898628 -0.07050085 0.19604407
0.018752487 0.2058469 -0.017348923 0.15259296 -0.3049323 -0.1931856 -0.023598827 0.15339318
-0.048781723 0.1001018 0.2208182 0.11609147 0.05789338 0.13484974 0.009408856 0.17896225
0.020213354 -0.21088426 0.12352121 0.19777878 -0.053939972 0.0702019 -0.08670058 0.21441372
-0.22538136 0.1565573 0.009940055 0.120929174 0.36427426 -0.04556714 0.06306345 0.0025243282
-0.033516932 -0.08498453 0.019786527 -0.1738198 -0.16949989 -0.0900241 -0.12478803 0.119088486
-0.04183012 0.20391685 0.123865716 0.04826038 -0.034424465 0.109270826 0.0005638975 0.08486585
-0.09169117 -0.033956576 -0.14745739 -0.03574866 -0.11848203 -0.19589311 -0.09315271 0.112567425
0.0085760765 -0.057445433 0.18820181 0.014579645 -0.14226034 0.04401088 -0.07476887 0.17561844
0.019512309 0.2964156 0.21680982 0.009898135 0.3514004 -0.11983297 0.16802108 -0.08577395
0.10197136 -0.19892816 0.0150923915 0.07323282 0.15572178 -0.18692383 -0.21895495 -0.14566524
0.09525012 0.017837187 -0.19282854 -0.016627671 0.107187964 -0.18959783 -0.15232027 0.18245855
00000000: d2f9 3cbe 5086 4bbd 1219 55bd 7416 6abd
00000010: 95e6 4cbe ba85 57be 0513 6cbd 5bc1 153d
00000020: 7159 203e 4499 543e 209a 683d a6fb 4abe
00000030: e58f 63be 07f7 b7bd c873 fabd 80ed b93c
00000040: ce44 9abd c89d 11be b061 3abe bbf1 5c3d
00000050: e8d1 433e 71e5 f0bd 99fb 41be 9091 463e
00000060: 2753 2fbe c345 f63d 8608 c4bc 110b 233e
00000070: 1eaf d2bd b13b c93d 4d2c 283d 28aa ac3d
00000080: e276 88be e8bf 6b3d 21e9 ef3d 3c10 3fbe
00000090: 3d61 c6bb fd7c 19bc 5336 4fbd 2491 7cbc
000000a0: fb61 7c3d 9c5d 47be 372f 85bd c96c 28be
000000b0: 9af1 a7bd 3249 06be ac32 d7bd 8b72 2d3e
000000c0: 914b 263e 916b 183e 604f 1d3e 8e05 22be
000000d0: 2806 50be 19ae b4bb e606 34be 5b86 493e
000000e0: ebe8 153e 2418 303d 8b9a 763d 87c6 debd
000000f0: c7f1 24ba 0f0e 823e bef9 5e3d 0c1e f23c
00000100: d4d0 af3e b694 c9bd 0b51 3d3d 1d99 403e
00000110: fbe3 3cbe 1e13 b43e f1c7 ef3d e687 3c3e
00000120: c535 3fbd 6e8d 93bd 1b90 843d d02f 273e
00000130: 0367 a1be 96b7 37be 7e53 953e a450 453e
00000140: 9e15 e93d 165e 31bd f17f 96bd 77eb d3bc
00000150: 5215 2a3e 3426 56bc 4aed 0c3d 7ec9 13be
00000160: 321c 62be 3c95 8a3c f3f8 2bba b55b 89be
00000170: 73a7 803e 40c8 4e3d 9b4b a7bd 0efe f2bd
00000180: afca e8bd 1a60 5b3e 2dfa e0bd 521b 623d
00000190: b045 ccbb f515 813e 886a 5cbe fd02 513d
000001a0: 8af3 06be 1676 523e 4101 c03d e55c 1e3e
000001b0: a0e1 583d 6173 973e 7c76 933e 9b49 c4bd
000001c0: b8fc b93e c6aa 8fbd 5d16 4ebe d6d4 d83d
000001d0: 40a7 653d 6cc6 763e c391 043d af53 7c3d
000001e0: ea10 07be ebfe ab3b 8e17 89bd 4110 8b3d
000001f0: 1cb8 483e f186 4e3e 5456 8f3d 13d0 c4bd
00000200: 055c 1dbd 6c02 e33d 3bf3 343e df03 23bd
00000210: 0556 b63e f47e 46bd 2109 003e 83bc 1cbe
00000220: 0b4e 393d 612b 973e 8290 2b3e 81a3 2abc
00000230: 7a9b 75bd 326c c6bd 6172 e83c 7392 263d
00000240: 0983 32be 9ae4 d53d 9a4a 223e 0a6f 483e
00000250: dd1e 69bb 5d1c 56be 014b 22bd 018c 5c3c
00000260: a71a 87bd b143 543e 8b19 bcbd 9143 6abc
00000270: eae9 2bbe 713f ae3c 5f4f b2bd 462c 10be
00000280: ebc7 283e c157 373e 7f07 37be 3518 53be
00000290: 7e4d 093e d6a5 483d c062 90bd c7bf 483e
000002a0: d19e 993c 88c9 523e 541f 8ebc 5441 1c3e
000002b0: 1620 9cbe 72d2 45be 5452 c1bc 1a13 1d3e
000002c0: 58cf 47bd 2c02 cd3d 2b1e 623e 5dc1 ed3d
000002d0: 9c21 6d3d 0d16 0a3e 9a27 1a3c e141 373e
000002e0: 7a96 a53c 0bf2 57be b0f8 fc3d 8586 4a3e
000002f0: 29f0 5cbd 04c6 8f3d 1390 b1bd 458f 5b3e
00000300: 5fca 66be 8f50 203e 9ddb 223c b7a9 f73d
00000310: 2882 ba3e 9ca4 3abd 6927 813d 336f 253b
00000320: 0d49 09bd 5f0c aebd 5b17 a23c d1fd 31be
00000330: 6191 2dbe 8e5e b8bd de90 ffbd aae4 f33d
00000340: 0f56 2bbd 94cf 503e 4fad fd3d adac 453d
00000350: ab00 0dbd 62c9 df3d 85d2 133a 26ce ad3d
00000360: 95c8 bbbd 0d16 0bbd 12ff 16be 306d 12bd
00000370: b5a6 f2bd 3498 48be d9c6 bebd c089 e63d
00000380: ac82 0c3c e74b 6bbd fab7 403e 77df 6e3c
00000390: b2ac 11be c144 343d 6c20 99bd 52d5 333e
000003a0: 47d8 9f3c c9c3 973e 6503 5e3e ca2b 223c
000003b0: c1ea b33e fd6a f5bd b80d 2c3e 41aa afbd
000003c0: 5cd6 d03d d3b3 4bbe 1446 773c 17fb 953d
000003d0: 8875 1f3e f668 3fbe ba35 60be 4529 15be
000003e0: 7f12 c33d 4b1f 923c d874 45be c136 88bc
000003f0: 5d85 db3d ef25 42be d8f9 1bbe 6ad6 3a3e

linear2.bias f4 [20]
0.1842758 0.04959179 0.160337 -0.10257532 -0.049983192 -0.14718042 -0.19938472 0.2198324
-0.087409176 -0.11432049 0.113489754 0.26382816 0.027126245 -0.20080462 -0.0039075627 0.1730885
0.007924651 -0.041516226 -0.14956374 0.12502557
00000000: ccb2 3c3e c320 4b3d 622f 243e 0213 d2bd
00000010: 2dbb 4cbd 77b6 16be 822b 4cbe bf1b 613e
00000020: 9503 b3bd dc20 eabd 516d e83d 7c14 873e
00000030: dc37 de3c ba9f 4dbe 030b 80bb 1d3e 313e
00000040: 65d6 013c eb0c 2abd 3d27 19be b406 003e

linear3.weight f4 [4, 20]
-0.04469082 0.095201805 0.17142826 0.512909 -0.21614668 0.17109153 -0.04102298 -0.0012333418
0.26721242 -0.10734429 0.068944626 -0.09015763 0.0055297352 -0.4477018 0.10592927 -0.20573601
0.31814393 0.023584489 0.08568163 0.077222615 0.08143653 -0.21091604 -0.14697655 -0.35970375
-0.31304738 0.0015466493 0.06913104 -0.1732826 -0.043380927 0.15556206 -0.03699852 0.07957286
-0.037242148 0.4657396 -0.09379507 0.16312861 -0.07952263 0.1534818 -0.30399978 0.19642264
0.13926281 0.08798879 -0.027463887 -0.2916177 0.21258351 0.41201276 0.34127954 0.073557034
-0.29979327 -0.44624957 -0.05734553 -0.27592418 0.09938133 -0.05737129 -0.0029422278 0.05102249
-0.2672195 -0.19108097 -0.080598034 0.025584338 -0.18305962 0.13150764 -0.09534344 -0.022598438
0.19684538 -0.36675102 -0.21387278 0.080055565 -0.17501996 0.09731832 -0.01848031 0.4937326
0.019987287 0.16471013 0.033632047 0.2805239 0.18096629 0.17668508 0.17591594 0.073602594
00000000: b90d 37bd 2af9 c23d e48a 2f3e 014e 033f
00000010: 8e55 5dbe 9e32 2f3e b607 28bd 15a8 a1ba
00000020: 11d0 883e 53d7 dbbd d732 8d3d 90a4 b8bd
00000030: c832 b53b 2c39 e5be 72f1 d83d 76ac 52be
00000040: c3e3 a23e 4234 c13c da79 af3d e426 9e3d
00000050: 32c8 a63d 60fa 57be 0581 16be 172b b8be
00000060: bf47 a0be f0b8 ca3a 9394 8d3d fe70 31be
00000070: 33b0 31bd a94b 1f3e c38b 17bd 18f7 a23d
00000080: 398b 18bd 6c75 ee3e a117 c0bd 300b 273e
00000090: c3dc a2bd 552a 1d3e dca5 9bbe 0423 493e
000000a0: e99a 0e3e 7733 b43d f2fb e0bc ea4e 95be
000000b0: 7eaf 593e 56f3 d23e 31bc ae3e 12a5 963d
000000c0: 817e 99be d37a e4be 25e3 6abd ef45 8dbe
000000d0: 7088 cb3d 28fe 6abd 64d2 40bb f5fc 503d
000000e0: ffd0 88be bbaa 43be 9510 a5bd 3f96 d13c
000000f0: fb73 3bbe f0a9 063e 6c43 c3bd 5c20 b9bc
00000100: d691 493e cac6 bbbe 7701 5bbe 2cf4 a33d
00000110: 6f38 33be d44e c73d 0564 97bc 85ca fc3e
00000120: 61bc a33c c6a9 283e c2c1 093d d4a0 8f3e
00000130: 3a4f 393e efec 343e 4f23 343e f5bc 963d

linear3.bias f4 [4]
0.10968644 -0.16663083 -0.26865152 0.5941788
00000000: 49a3 e03d 46a1 2abe b18c 89be 1a1c 183f
